gunsnipBotData.pth (torch, 20622 bytes, 6 tensors)

l1.weight f4 [8, 290]
00000000: 2671 61be f2b3 a6be f3f9 21be 4fee ae3e
00000010: 1db9 b13e 1dc8 64be 0c6a cabd 6ce0 b1bc
00000020: f895 05bf 7d85 ca3e e937 68be ecc9 83bf
00000030: c472 a03f e620 4d3f 44a5 d63f 54b9 543f
00000040: 011f c3be 7bd9 2c3f 8e82 343f 73c0 793e
00000050: 21ab 0f3e 8df4 e63e f122 543f c6c9 943f
00000060: c3e7 d13f ef24 f83d f7b4 963e ec6d 0b3f
00000070: c1bb 893e daaf 413d 0217 20bf 3af6 d8be
00000080: 8b05 2bbf 6ec9 d0bd e35d 99be 0421 c53e
00000090: 297e ee3e ad43 963d 2ca0 42bd 3f3d 373f
000000a0: f233 b13d 5ae3 1fbf 5d10 dc3f c722 ce3e
000000b0: 5c87 193c 7482 f83d 720f 19bf 6b89 483f
000000c0: bfbb 643f a34d 3bbe 0996 e0b7 78d0 46bf
000000d0: 6892 193f 08ca 853e 4f8a 49be dea9 08bf
000000e0: bdf4 4b3f 7ccb 87bc 2586 40bf 38e8 eebe
000000f0: cdc0 4a3f 762b 573f e172 553f d6b6 ddbe
00000100: 46eb 573d 3efb 5dbe 0d53 163f 3c8c aabf
00000110: 34b2 5bbe 60a3 5ebf d893 b2be b4cc 4a3f
00000120: a260 4b3f e3a4 0b3f 64ae bdbd 866e a8bc
00000130: f37f 0a3f 707f 583f 629b 033e 56e1 483d
00000140: 1f4c dd3d 7e50 82bf 695e 40bf e028 bcbd
00000150: 5003 ef3e e595 73bf 0563 fdbc 095e 023f
00000160: 1553 4dbf d5bc 423f 5c42 133f 263f 3c3f
00000170: 5ddc 4b3e 970f 40bd 6131 c63f 25f7 553f
00000180: fe17 a8bf ae0e d53e 7db1 ca3e f162 d33f
00000190: fccc 04be 8eb3 47bf 17fc 6c3e 1041 173e
000001a0: 526f 443f 95a4 2b3f f053 dfbc e074 373f
000001b0: d954 16be 5c6f 71bd 13b9 a3bd 5756 50bd
000001c0: 494c 07bd e669 ae3e 50b1 65bf 3ca2 92bf
000001d0: 35f2 903c ea8c adbd 7102 2dbd 64ef 8c3f
000001e0: f7b3 b23d 735a 3fbe c8dc ac3e df90 cebe
000001f0: d33c 963f dde9 a43e 7c88 57bc 9f94 873f
00000200: 08c7 363f a4d6 a7be 036b eb3e d48f d4be
00000210: 9d62 13bf e4f1 833d 1e32 ed3e fc5e e13d
00000220: 2af7 5c3f d1b9 b93e e0d2 293e 9930 0d3f
00000230: a83f 603e 3405 31bf 3ab1 103f 7ffa fcbd
00000240: 7048 ac3f e92c 50bf e67a 11bf 7233 75bd
00000250: ca56 533e b3d7 623f c944 cb3f a1b8 1fbf
00000260: 3267 b23f 155e 283f 220a a4be 3be2 8bbf
00000270: cd3a 893f b6cf 1d3e a312 2a3e e7cd 323f
00000280: 2da7 183f 3f42 3ebf b0d6 5cbf 4f1c 81be
00000290: 35e9 1e3f 6cb5 a03e 310a 90bf 1d6a fa3e
000002a0: 4cb4 18bf 68ce 00bf 9be4 dbbe a8d8 34bf
000002b0: 3fff 2dbf c11b a4bf 7c30 323f f56a c33e
000002c0: aa88 bcbe 3483 c93e 0c44 94bb d331 86be
000002d0: 656b 9e3e 1d7e db3e 909f 92bf 55de ba3e
000002e0: ddfe 8abe 91ec bbbe c268 60bf 4212 e63d
000002f0: 5581 7e3f 003b 363f 7a5d d23f 4141 b03f
00000300: 0b14 da3e c6dc ee3a d2ea 1b3d 371b 823f
00000310: e456 c3be c7fd 7fbf 8743 5cbf 262c b5bf
00000320: f807 f4bc 0fac b33e da6e 093d 6086 33bf
00000330: 17ff 3b3f 72c9 80bf 3850 0a3f fe1a 613f
00000340: 3255 debd e552 abbe 3dfc b9be 5e06 273f
00000350: cf34 513f 5ef7 abbe 9af3 34bd db2b e4be
00000360: 256d 92be bc3f 233f 9d15 b5bf a41d 463e
00000370: 37c6 e93f 8a01 f5bc 297a 183f 78ad f3bb
00000380: 9c3c babe 14aa 28bf b0f4 c13f ae68 273f
00000390: 081d e83e ee32 c43e aa18 2bbe 5f2d c73f
000003a0: 2123 d23e 306c 083f 0fed dfbe bf71 2f3f
000003b0: 345a 993e 0d16 d03e 705f a5be 8e07 553f
000003c0: 7a04 df3f c147 3bbe 8165 c93e ae91 953e
000003d0: 05fd 313f 158a 3d3e be5f e9be cb93 afbd
000003e0: 4dc6 00be a8e0 1f3f 76fc fd3e 7148 083f
000003f0: ba1f 8e3e 8248 3a3e 8e91 d13e 6aa3 503f
-0.22015819 -0.32559162 -0.15818004 0.3416619 0.34711543 -0.22341962 -0.09883508 -0.021713458
-0.5218196 0.39554968 -0.22677578 -1.0295997 1.2535024 0.80128324 1.6769185 0.8309529
-0.38109592 0.6751935 0.7051171 0.2438982 0.14030124 0.45108452 0.82865816 1.1624076
1.6398853 0.121164195 0.2943494 0.544646 0.26901057 0.047286846 -0.6253511 -0.42375356
-0.6680533 -0.1019467 -0.29954442 0.3850175 0.46580628 0.07337127 -0.047516033 0.7157783
0.08652486 -0.62456286 1.7192494 0.40260908 0.009370651 0.12134257 -0.5978919 0.78334683
0.8934898 -0.18291335 -2.6772746e-05 -0.7766185 0.59989023 0.261307 -0.19681667 -0.53384197
0.79670316 -0.016576521 -0.7520469 -0.46661544 0.7920044 0.8405069 0.83378416 -0.43303555
0.05271461 -0.21677873 0.58720475 -1.3324046 -0.21454698 -0.8696804 -0.3487842 0.792186
0.79444325 0.5454847 -0.09261778 -0.020560514 0.54101485 0.84569454 0.12852243 0.049043022
0.108055346 -1.0180814 -0.7514406 -0.09187484 0.46682215 -0.95150596 -0.030931005 0.50924736
-0.802049 0.76069385 0.5752313 0.73533857 0.1990828 -0.046889868 1.5483819 0.8358024
-1.3132322 0.41612762 0.39588538 1.651457 -0.1296882 -0.78008354 0.2314304 0.14770913
0.7673236 0.6704801 -0.027261704 0.7166271 -0.14680804 -0.05894409 -0.079942845 -0.05086359
-0.033031736 0.3406517 -0.8972368 -1.145576 0.017693618 -0.08474143 -0.042238656 1.1010556
0.08725732 -0.18686847 0.33762193 -0.40344903 1.1737312 0.32209674 -0.013155099 1.059223
0.7139745 -0.32780945 0.4598008 -0.41515982 -0.57572347 0.06442621 0.463273 0.11004445
0.8631464 0.3627458 0.16584349 0.5515228 0.21899283 -0.69148564 0.56520426 -0.12352466
1.3459606 -0.8131853 -0.56828153 -0.059863515 0.20638576 0.8861038 1.5880367 -0.62391096
1.3937743 0.6576856 -0.3203898 -1.0928415 1.072107 0.15411267 0.16608672 0.6984543
0.5963009 -0.74319834 -0.8626509 -0.2521691 0.62074596 0.31388414 -1.125311 0.48909083
-0.5965011 -0.5031495 -0.4294785 -0.7064309 -0.679676 -1.282097 0.6960523 0.3816754
-0.36823016 0.39357913 -0.0045247134 -0.26209888 0.3094131 0.42869654 -1.1454945 0.3649775
-0.2714757 -0.36703923 -0.8765985 0.11233951 0.99416095 0.71183777 1.6434777 1.3769914
0.42593417 0.0018223755 0.03806574 1.0164555 -0.3815223 -0.9999661 -0.8604054 -1.4154098
-0.029788956 0.35092208 0.033552982 -0.70126915 0.7343611 -1.0061476 0.54028654 0.8793181
-0.108560935 -0.3346168 -0.36325255 0.6524409 0.81721205 -0.33587164 -0.04417763 -0.4456471
-0.28598896 0.63769126 -1.4147221 0.19347245 1.8263615 -0.02990796 0.595614 -0.0074364506
-0.36374366 -0.6588452 1.5152798 0.65394104 0.4533465 0.38320106 -0.16708627 1.5560721
0.41042426 0.5329008 -0.4373555 0.6853294 0.29951632 0.40641823 -0.32299376 0.8321465
1.7423241 -0.1828909 0.39335254 0.29212707 0.695267 0.18509705 -0.45580858 -0.08573111
-0.12575646 0.62452173 0.49606675 0.53235537 0.2775858 0.18191722 0.40931362 0.8149935

l1.bias f4 [8]
00000000: e460 733f 5088 313f 7126 ac3f 62ec 773f
00000010: 0621 c83f 4427 343f ec59 763f ac36 ae3f
0.9506972 0.6934862 1.3449231 0.96845067 1.5635078 0.70372415 0.9623096 1.3610435

l2.weight f4 [8, 8]
00000000: 0fb4 a9bf d800 e33f 9bb7 0540 aeb4 5fbf
00000010: c909 883f 2826 6dbf b6c9 853f c353 04bf
00000020: fd8c 26be ffdf 29c0 0320 0e40 4d36 7740
00000030: 794e b43f 4285 8fbc b4cb 7c3d 2510 a3be
00000040: 06b3 ddbf bfc5 fabe 466c f03f 3a2d 6bbf
00000050: 7c04 443f 4619 153f 8d50 dbbf 3b2d 6b40
00000060: f853 0740 72ca 3a40 545d d83f 9cdb d73d
00000070: 8801 de3e 686b 6d3f 21dc 7b3f 343c d6bf
00000080: b7ea 733f 3daa ce3f 8999 bb3f 651f 0b40
00000090: ad38 33bf 738e 7cbf b34e 2bbf 4d16 5b3f
000000a0: 456d 83bd 3c9e 5c3e 298e 0abe ea32 3fbc
000000b0: b505 0b3e 0bb5 2fbe a36c 64be f341 9fbe
000000c0: 398b 6640 9265 78bf 3b74 873f b6d8 f8bf
000000d0: 2ed1 fd3e 883e cbbf 5000 4440 780b b83f
000000e0: 5b97 123e 0f2c 5f3f 747c d7bf bf98 d63e
000000f0: fa99 5040 9c6a 7c40 f278 d33f fe73 cb3e
-1.3258075 1.7734632 2.0893314 -0.8738507 1.0627986 -0.92636347 1.0452182 -0.5169031
-0.1626472 -2.6542966 2.2207038 3.8626893 1.4086448 -0.017519597 0.061717704 -0.31848255
-1.7320259 -0.48978993 1.8783042 -0.91865885 0.7656934 0.5824169 -1.7133957 3.6746356
2.1145 2.9186063 1.6903481 0.10539934 0.43360543 0.92742014 0.98382765 -1.6737123
0.9528002 1.6145703 1.465623 2.1737912 -0.70008355 -0.9865486 -0.6691696 0.85580903
-0.06417326 0.21544737 -0.13530792 -0.011669854 0.13576396 -0.17158906 -0.22307067 -0.31105003
3.6022475 -0.97029984 1.0582346 -1.9441135 0.49573654 -1.5878458 3.062519 1.43785
0.1431555 0.87176603 -1.6834855 0.4191341 3.259398 3.944007 1.6521285 0.39736933

l2.bias f4 [8]
00000000: 9343 1a3f a42d 493f 6f31 a93f f990 32bf
00000010: c17c 9c3f 9220 85be 2d3a 883f 6c83 923f
0.6025936 0.7858527 1.3218211 -0.6975246 1.2225572 -0.26001412 1.0642754 1.1446357

l3.weight f4 [79, 8]
00000000: 5a8b 70c0 f277 143f 045e e7be 0d15 2abf
00000010: c692 75bf ae4b ab3d 2f6e 28bf 6e2f fd3e
00000020: e3a4 cabf 4ece a43d 459c 2abe b2da ffbe
00000030: e884 ebbf c232 883e fc0f 9c3e 0359 853e
00000040: c11c 09bf 07ef a1be 2c2b 2d3e a063 25be
00000050: 7166 9abf 0c7a 3a3d d1cf 883e c070 23be
00000060: aac9 46bf 4b9b b33e 9b13 b5bf d883 633e
00000070: 80d9 283d bfb0 eebe 38af 25c0 decf 133e
00000080: 31af 643e 3f52 ba3d 42f0 d8bf 831b 5d3e
00000090: 1e02 80be f4a5 363e 0cab 783e af3b 39bf
000000a0: 8882 4dc0 bf78 5ebe 2375 253f c649 4cc0
000000b0: da25 24be b093 0fbe de48 103f d080 d1be
000000c0: fb5f ab3d 7c7b 28c0 855f 1fc0 80ae 043f
000000d0: b8c1 ebbf d308 0b3e b63b 77bf 0391 fa3e
000000e0: 0881 2ec0 e22f 1ec0 1c0c b23d ce7a 15c0
000000f0: d6ef abbe 27aa 8cbe c711 8a3f baf4 cdbe
00000100: e0a5 a73e 33ca 093e 7448 cb3e 4c9a b4bf
00000110: 3868 6fbf fa9b bfba ffaf 803e 12bc 35bf
00000120: 0a57 6dbf d124 81be 3328 26c0 202d 0f3f
00000130: a2b1 82bb fb27 91bd 9997 aabe 6375 823c
00000140: 3c3f 24c0 b336 dabe 53a6 033f 084b 0ac0
00000150: 8e19 a8bf c674 54bd b156 543d 32c1 b43e
00000160: ddfb 33c0 fb52 b53e 53bc 16c0 9b83 01be
00000170: 821c 09bd 2ad4 fb3c 5e3a fb3e bcc0 b4be
00000180: 82f8 f7bf 071a d5bf c343 833e 8bed 5dbe
00000190: 01c1 59bf 7d03 56bc e6aa 9d3e cc23 823e
000001a0: 648b 13c0 c37f 9dbe c2f7 16bf 53bc b6be
000001b0: 6ea4 9dbe 0d7b 483d 4c85 833f 85aa 64bf
000001c0: 3459 c2bf bdd1 7a3e 76fc 99bf 36b0 923e
000001d0: 28b8 cf3e cc3d acbe 6abf debe 3821 05bf
000001e0: 10a5 79bf 2a0d debe 0c0d 1bbf 9737 043f
000001f0: c977 d0bf 2dc1 55be 5b62 54c0 988b 133f
00000200: 849e abbf 69c1 f13e d76b 7abc 54aa dfbd
00000210: ed9b 1c3e e46a a7be 6b65 ef3c b942 99bf
00000220: e41f 3abf 2b37 0c3f c1b7 b5bf 292f 76bc
00000230: f773 443e 691b 0b3e 2782 d43e cc75 b9bf
00000240: 4f08 26c0 8296 443f 8ff9 183f c90f 33c0
00000250: 1564 54be 0ecb 5f3e 78ec 5ac0 b3de 123d
00000260: 0dc2 473e 8aab 183e 3f92 afbe f1ba 2a3e
00000270: 7930 6f3e 52c7 a03e 29c6 9cbc 5722 29c0
00000280: 7670 3abd 1f3b 3dc0 a81c 09bf 504f 893e
00000290: 6b8e 463e c173 b0be 9471 f13e 1755 16bf
000002a0: 4a8b a2be 9a62 91bf 2f59 2a3f 59f4 e03d
000002b0: 47f7 d4bf b069 60be 272d 24c0 851a 463e
000002c0: edea fbbf 7a31 a3be fb58 a63e cbe2 24bf
000002d0: daed 19c0 0ef0 aabe 2704 57c0 85fd 343f
000002e0: d80c 25be ad56 bb3e c9b6 c3be b46b 66be
000002f0: f8bc f9bf 04d0 b7bb d8b5 5cbf 3bf8 1f3e
00000300: 741d 863d 2c3b 9a3e e061 4abf ad21 053d
00000310: ae0b 1bbf 6e38 76bd 2cbc 4dbf fb5a bcbd
00000320: aecf a63e d6a7 e9be e031 073f 625d 06bf
00000330: 5a2f 6f3e 1d83 d93d 9839 f1bd e543 ddbf
00000340: 2174 febe ffc6 053c 82d7 f9bf eec2 f63e
00000350: a7f6 73bf 7b31 513d 0333 b8bf fee4 da3e
00000360: c388 f33e 0ef7 9ebf 8be9 57bf 5746 dc3e
00000370: a8af f1be 0074 abbe 7d4b 2b3e f61b c6be
00000380: 6dba 3cc0 01fe 4d3f 17ce c63e dade c3bf
00000390: 2f56 f73e 2a01 993e fe5f 30be 3bef fabf
000003a0: 07c6 1abf 7d65 31bf bd3b af3e e1ea 34bf
000003b0: 4f60 2ac0 44e1 42be 150b 14bf f769 f73e
000003c0: 667d c6be 9e01 aabf 3255 063f 1e7b ebbf
000003d0: d9b6 e6be e70b f1bc 345f be3e f2a9 e2bd
000003e0: 2d85 49bf 56fd d5bd 62a3 033f 27bc c0bd
000003f0: 9c46 053e af0c 29be 95e4 4cbf d821 2ebf
-3.7585053 0.5799552 -0.45188916 -0.6643837 -0.95927083 0.08364044 -0.65793127 0.49450248
-1.583157 0.08047162 -0.16661175 -0.4997154 -1.8399935 0.26601225 0.30480945 0.26044473
-0.535595 -0.31627676 0.16911 -0.16151285 -1.2062513 0.04552655 0.2672105 -0.1596098
-0.77651465 0.35079417 -1.4146608 0.22218263 0.04122305 -0.46619222 -2.5888195 0.14434764
0.22332455 0.090977184 -1.6948321 0.21592526 -0.25001615 0.17836744 0.24283999 -0.72356695
-3.211092 -0.21725748 0.6463186 -3.1920028 -0.16030064 -0.14021182 0.56361187 -0.4091859
0.08367916 -2.632537 -2.490205 0.51828766 -1.8418493 0.13577585 -0.96575487 0.4893876
-2.7266254 -2.4716725 0.08693716 -2.3356204 -0.33581418 -0.27473566 1.0786675 -0.40225774
0.3274374 0.13456039 0.39703715 -1.4109588 -0.935184 -0.0014618628 0.25134274 -0.709901
-0.92710936 -0.252234 -2.5962036 0.5592823 -0.0039884606 -0.07087704 -0.33318785 0.015925115
-2.5663595 -0.42619857 0.51425666 -2.1608295 -1.3132799 -0.051869176 0.051840488 0.35303646
-2.8122475 0.35414872 -2.3552444 -0.1264786 -0.033474453 0.030740816 0.49067968 -0.35303295
-1.9372714 -1.6648568 0.25637636 -0.21672647 -0.85060126 -0.013062355 0.30794448 0.25417936
-2.3053827 -0.30761537 -0.589718 -0.35690555 -0.30789512 0.048945475 1.0275054 -0.8932269
-1.5183473 0.24494071 -1.203017 0.28650063 0.40570188 -0.33640897 -0.43505412 -0.5200381
-0.9751749 -0.43369418 -0.6056678 0.51647323 -1.6286556 -0.20874472 -3.3185031 0.5763488
-1.340775 0.47217873 -0.0152845 -0.109211594 0.15293856 -0.3269874 0.029223165 -1.1973487
-0.7270491 0.5477168 -1.4196702 -0.015025892 0.19184862 0.13584675 0.41505548 -1.4489074
-2.594257 0.76792157 0.59755796 -2.7978384 -0.20741303 0.21854803 -3.420683 0.035856914
0.19507618 0.14909187 -0.34291264 0.16672875 0.23358335 0.3140207 -0.019137459 -2.642721
-0.045517407 -2.9567335 -0.5355935 0.26818323 0.19390266 -0.34463313 0.47156966 -0.58723587
-0.31746894 -1.1358216 0.66542333 0.109841056 -1.6637963 -0.21915317 -2.5652559 0.19346054
-1.9681069 -0.31873685 0.32489762 -0.6440856 -2.4051423 -0.33386272 -3.3596284 0.7069934
-0.16118181 0.36589566 -0.38225392 -0.22502023 -1.9510794 -0.005609514 -0.8621497 0.15622036
0.065485865 0.3012327 -0.79055595 0.03250282 -0.60564697 -0.06011241 -0.8036525 -0.09197041
0.32580322 -0.4563586 0.5281048 -0.5248624 0.23357907 0.10620711 -0.11778563 -1.7286345
-0.49697974 0.00816512 -1.9518893 0.48195595 -0.95298237 0.05107258 -1.4390568 0.42752832
0.47565278 -1.2419145 -0.84340733 0.43022415 -0.47204328 -0.33486938 0.16728015 -0.38693208
-2.9488785 0.80465704 0.3882911 -1.5302384 0.4830794 0.298837 -0.17224118 -1.9604257
-0.60458416 -0.69295484 0.34225264 -0.70670897 -2.6621282 -0.19031245 -0.5782941 0.48323032
-0.38767546 -1.3281744 0.5247375 -1.8396947 -0.45061377 -0.02942462 0.3718201 -0.11067571
-0.78718835 -0.104487106 0.5142118 -0.09410887 0.13015217 -0.16508745 -0.8003629 -0.6802039

l3.bias f4 [79]
00000000: afe9 ef3e bf5e 6fbe 8acf 32bf b2a7 043f
00000010: 3666 88be e95f 3cbe 5375 b6bd a791 dc3e
00000020: e5f0 e3be 1281 75be ab42 e73d bf5d 603e
00000030: e2f7 12bf ad2d 7a3e 7e92 8dbe 4a8a 903d
00000040: 13d0 973e 3d9b a2be ec86 813e 5d81 8ebe
00000050: 924a 6fbe 0213 42be a7ab c03c d843 49bf
00000060: 950d 50bf bdcc aabe 4133 8ebe e64d 97be
00000070: 8781 223f bf2f 93bc 5612 213f b6f6 a9bd
00000080: 88c5 473d 6949 02be 57b7 bbbf 7835 ee3d
00000090: f1f5 0cbf 000e 56bf 68a5 e6be e379 51bf
000000a0: be47 dcbe 450c 893f 2839 523f cadc 5b3c
000000b0: a0e9 f33d 232a 763d 87cd 153e e644 5f3e
000000c0: 06ab 4d3e 4880 403f ab3f 5fbf 418b 063f
000000d0: 0018 5fbe a7fd 5dbe 5d75 02bf ad19 ddbd
000000e0: 5763 903e 974e 28be f3ae d83e 8fbf aabd
000000f0: 96e1 39bf ed22 323f 2968 86bd d2c2 ae3e
00000100: f5e0 36be d752 ab3d 04c3 a2be 4fbc 1b3f
00000110: e70e a2be e185 18bd 2103 d33e 5427 aebe
00000120: 8f19 553e 91bf b33e c027 a43e a7bb 443f
00000130: 28d5 043d 4594 b33e d69f 1f3f
0.46857974 -0.23375987 -0.6984793 0.5181838 -0.2664048 -0.18395962 -0.089090966 0.43079874
-0.44519725 -0.23975018 0.11292013 0.21910761 -0.5740949 0.24431486 -0.27650827 0.070576265
0.29650936 -0.31759062 0.2529825 -0.2783307 -0.2336829 -0.18952563 0.02351935 -0.78619146
-0.81270725 -0.33359328 -0.2777348 -0.2955162 0.63478893 -0.017967103 0.62918603 -0.082990095
0.048772365 -0.12723316 -1.4665326 0.11631292 -0.55062777 -0.8361511 -0.4504807 -0.8182661
-0.43023485 1.0706869 0.82118464 0.013419339 0.11909795 0.06009878 0.14629184 0.21803626
0.20084772 0.7519574 -0.87206525 0.52556235 -0.21786499 -0.21678792 -0.5096033 -0.10795913
0.2820079 -0.1643623 0.42320976 -0.08337318 -0.7260984 0.6958454 -0.06562836 0.3413301
-0.17859252 0.0836541 -0.3178941 0.6083421 -0.31651995 -0.037237052 0.41213325 -0.3401438
0.20810531 0.3510709 0.32061577 0.76848835 0.032429844 0.35074058 0.62353265
