gunsnipBotData.pth (torch, 8590 bytes, 6 tensors)

l1.weight f4 [8, 100]
00000000: 67e6 76be 2372 673f a65f 99bf 1371 6e3e
00000010: cd06 b13d 5e0e 8fbe a934 9bbe bdbb e8bd
00000020: 24fa 88be 5478 2cbf 1427 373f 8c73 993e
00000030: 2ff7 e9bc 28b9 c6be 717b a63e 46bb 313e
00000040: 60eb 9abe cc53 84be cb69 b23f 27ae 863f
00000050: 1cc8 26bd ce80 e7bd a466 9abe 471d 7d3f
00000060: 6223 093f dd1d 5ebe 45ba a4be ba36 62bf
00000070: c1db 9b3e 70d6 4cbe 62ea 963e 2b54 2dbf
00000080: cd4f 59bf 6f8a 62be e27a b13e 9b46 7ebf
00000090: ec14 fb3e fd25 873f 82ca 9c3d 4719 9cbd
000000a0: ff66 75be 6127 3a3f c7dc 1d3f ac64 483f
000000b0: 5a9c 483f 76d7 b73f e26a f23e 3fde 343e
000000c0: fb08 94be a4f7 073f 459d 0e3f da5d a7be
000000d0: 9b55 47bf 9865 803e e37f f2bd a16b 933b
000000e0: f689 1f3f 77e3 8fbe a97f 78be d233 fb3e
000000f0: 191c 533f 2e57 81bd 095b 58bf 0c45 1cbf
00000100: 89e9 683f d153 00bf c845 54be 4b40 39be
00000110: f186 2abe bebc c8be eb56 93bd 8770 c5be
00000120: 633e 45bf bedf ad3f ecbf b3be 93a7 5abe
00000130: d03d 5bbf e640 353f 8192 293f 8a82 6f3f
00000140: ed76 103f 624d 60be b3dd 963e fc60 94be
00000150: caa6 5fbe 7596 b03e d9f8 29be 6724 b23f
00000160: 587c 2d3f 3035 cf3e 640b ba3e 458f 1ebd
00000170: 1914 1cbf 61bb 2ebe ae36 b23e 9f05 b53e
00000180: ad83 de3e deb6 2abf 53ad 163e aeb4 263f
00000190: a6c5 ed3e 386f 1b3f 8202 363e c457 c23e
000001a0: 6ee6 0c3e efbe 553f d7b6 343f dce1 d33e
000001b0: cdb8 713d 1ebf bd3f 35f5 803e b485 453f
000001c0: f686 bc3e ed7d 213f ef10 5d3e 6106 103f
000001d0: f8b8 77be c947 9cbe 3fa3 bdbe 7b5f 4ebe
000001e0: 0d55 fd3e 37cb edbd 9686 823f 629f f33e
000001f0: b2cb b63e f23f 31bf 9da9 f33e 5576 bc3f
00000200: d4fd 0b3e 419d 16bf c9f1 373e b209 3bbf
00000210: 9656 373f 723f 0e3f 8f0b 0b3f cbba b5bf
00000220: 931d 9c3e 6f51 67be f65f d63f a147 363e
00000230: f3e8 1b3f a12e d43e 1289 d13e 9641 dd3e
00000240: eb59 043f 62d3 7c3f 819f 493e d203 133f
00000250: 99ca 0f3f 1444 993e 3b6a 0c3e 45d3 91be
00000260: af62 15bf f782 4a3e 1729 8d3e 5f42 613f
00000270: 0279 b73c 5232 043f a352 873e 93cc fc3e
00000280: 0544 cd3f 35ff 393e 1510 0e3f 9867 21bf
00000290: 7ae7 7fbf 887f 713f 81d6 a63e 951d e93e
000002a0: 0941 cf3e e5f8 393f e258 c23e 72a1 403f
000002b0: b32d 2fbf e89b afbf 2cd6 303d aedb 123f
000002c0: 6574 b43f b990 383f 6c96 833f 8470 b33f
000002d0: 1452 25be f885 99be aa65 483e 6c7e 233f
000002e0: a41f 2a3f 79e3 b23e 0760 8dbc 2151 6e3f
000002f0: 15f7 933e 75de 2a3e cdc3 a43e 6bd8 0b3f
00000300: aa9a 9d3f c47d 553f 9b06 b1bb 2227 8f3e
00000310: 793d c3bf ee02 23bf 978c 013f b1fd df3d
00000320: e79c dcbc 9b77 dbbe 87f4 753f 6b79 d53e
00000330: d083 87bd 2cce 27be 0dbb 0ebd 2496 0fbe
00000340: d8d7 f1bd eeee 413f 0596 9f3e 3a59 1ebd
00000350: 4a26 15be 362f f2be 1040 f13d d523 813f
00000360: 32f3 293f b821 8b3e f0d3 8ebf 47d8 31bf
00000370: cf6b c2bd 8a65 aa3e 96a3 243f cf07 efbe
00000380: 9b9c 82bb e82f fcbc 01c6 283f 6237 5abf
00000390: 8892 043e 45d8 cdbc 579c 603d fcae 4fbe
000003a0: ba79 8d3e 83af 85be 1323 923e 0744 933f
000003b0: 97eb 883d c7ca 2cbf 45c3 0d3d dbda 243f
000003c0: fe2e da3f 8098 d13b 724a 3bbe 72cd 443c
000003d0: 3e49 3dbe e61f f6bc 7128 833e b8e0 993e
000003e0: 1e25 1fbe 2652 2b3f 50b3 443f 0e84 8d3e
000003f0: 1ae1 413e 53eb 2dbe abdd 743e ac94 113f
-0.24111329 0.90408534 -1.1982315 0.23285322 0.08643875 -0.2794065 -0.30313614 -0.11363933
-0.26753342 -0.67371106 0.71544003 0.29970968 -0.02856025 -0.38813138 0.32516053 0.17356595
-0.30257702 -0.25845182 1.3938535 1.0521897 -0.040718183 -0.113038644 -0.30156434 0.988728
0.53569615 -0.2169108 -0.32173362 -0.88364756 0.30441096 -0.20003676 0.29475695 -0.67706555
-0.8488739 -0.2212312 0.34664065 -0.99326485 0.490394 1.0558468 0.07655813 -0.07622009
-0.23965071 0.7271634 0.61665004 0.78278613 0.78363574 1.4362628 0.4734717 0.17662905
-0.28913102 0.53112245 0.55708724 -0.3268879 -0.77865 0.2507751 -0.11840799 0.0044989143
0.62319887 -0.2810323 -0.24267448 0.49062973 0.8246475 -0.06315456 -0.8451391 -0.6104286
0.90981346 -0.50127894 -0.20729744 -0.18090932 -0.16653039 -0.392065 -0.07194313 -0.38562414
-0.7704832 1.3583906 -0.35107362 -0.21352987 -0.85641193 0.7080215 0.6623917 0.9355856
0.56431466 -0.21904519 0.29466018 -0.28980243 -0.21840969 0.3448979 -0.16598834 1.3917359
0.6776786 0.40470266 0.36336815 -0.03871085 -0.60968167 -0.17063667 0.34807342 0.3535585
0.43459836 -0.66685283 0.14714555 0.65119445 0.46439856 0.6071658 0.17774394 0.37957585
0.13759777 0.83494467 0.7059149 0.41383255 0.05901413 1.4823949 0.25187078 0.7715714
0.36821717 0.6308277 0.21588491 0.56259733 -0.24191654 -0.30523518 -0.3703861 -0.2015361
0.4947895 -0.11611026 1.0197322 0.47582537 0.35702282 -0.692382 0.47590342 1.4723612
0.13671046 -0.588337 0.17963327 -0.7306167 0.71616495 0.5556556 0.5431451 -1.419763
0.30491313 -0.22589658 1.6748035 0.17800762 0.6090233 0.41441825 0.4092489 0.432141
0.51699704 0.98760045 0.19689752 0.57427704 0.56168514 0.29934752 0.13712399 -0.28481498
-0.58353704 0.19776522 0.27570412 0.879919 0.022396568 0.5163928 0.26430234 0.49374828
1.6036383 0.1816376 0.5549329 -0.63048697 -0.9996258 0.9433522 0.32585528 0.45530382
0.40479305 0.7264541 0.37958437 0.75246346 -0.68429106 -1.3719454 0.043173 0.57366455
1.4098021 0.7209583 1.028028 1.4018712 -0.16144592 -0.29985023 0.19570032 0.6386478
0.6645453 0.34939173 -0.017257703 0.9309254 0.28899446 0.16686423 0.32180634 0.546271
1.2312825 0.8339503 -0.0054023988 0.27959543 -1.5253135 -0.63676345 0.5060515 0.1093706
-0.026930286 -0.4286469 0.96076244 0.41694197 -0.06616938 -0.16387242 -0.034846354 -0.14022118
-0.11808747 0.757552 0.31169143 -0.03865931 -0.14565387 -0.47301644 0.11779797 1.008906
0.6638671 0.27174163 -1.1158428 -0.6947064 -0.09493219 0.33280593 0.6431211 -0.46685645
-0.003985954 -0.030784562 0.6592713 -0.8524076 0.12946522 -0.02512754 0.054836597 -0.20281595
0.27631932 -0.26110467 0.28542385 1.1505135 0.0668556 -0.67496914 0.03461005 0.64396447
1.7045591 0.0063963532 -0.18290117 0.012011873 -0.18484971 -0.030044507 0.25616792 0.3005426
-0.15541503 0.66922224 0.7683611 0.27639812 0.18933526 -0.169843 0.23912685 0.5686748

l1.bias f4 [8]
00000000: 9f63 733f cc48 c53f 20bd 6b3f 5f0f 8d3f
00000010: cb25 5b3f aab7 3a3f dffa 9e3f feed 853f
0.95073885 1.5412841 0.92085457 1.1020316 0.8560454 0.729365 1.242031 1.0463254

l2.weight f4 [8, 8]
00000000: 296f 1e3f 3d2a 1d3f d2a7 e23f df93 a33f
00000010: e471 f5bf 6b41 32bf 1893 b93f 8c8e 4f3f
00000020: d031 993e 1f0f 4d3e 4f5e 85bf bb13 23bf
00000030: 1c03 1240 3519 0940 c8b6 b93f e27e 2b3e
00000040: dbf0 0040 fa21 1140 82ac cebe 41f1 c13f
00000050: 037c 6c3f 85ec 9ebf fff5 3e3f 9eb5 87bf
00000060: 8301 22be fb5a 1b40 a361 bcbe b8d3 1dc0
00000070: 96ed 583f 73ff 8e3f ff7b ea3e 331a 7fbd
00000080: b2e0 fdbf b045 383f aa2f 883f cdc0 5ebf
00000090: 28d5 a43e c843 ac3e 0a07 5f3f 2c0e 1640
000000a0: afa1 cdbe fa39 af3f 3707 1640 d950 1c40
000000b0: 5f72 323f cd7d fe3f 605b 05c0 08e1 9e3f
000000c0: 1d1a 36be ec36 9dbd dcf5 103e aaec 79be
000000d0: b8e5 3c3d c031 64bc d6e4 8bbe 72d1 18be
000000e0: 2049 073d 4710 a0bf d971 7a3a 9e7b 443f
000000f0: 906e f43f cf71 b93e 985c 0440 2461 b73f
0.61888367 0.61392576 1.7707465 1.2779502 -1.9175382 -0.6963107 1.4498014 0.81076884
0.29920816 0.200253 -1.0419406 -0.6370198 2.2814398 2.1421635 1.4508905 0.1674762
2.0147007 2.2676988 -0.40365988 1.515175 0.92376727 -1.241593 0.7459411 -1.06023
-0.15820889 2.427428 -0.3679324 -2.4660473 0.8473753 1.1171707 0.45797727 -0.062280845
-1.9834197 0.71981335 1.0639546 -0.8701294 0.32193875 0.33645463 0.87120116 2.344615
-0.40162417 1.3689568 2.3441904 2.4424345 0.69705766 1.9882141 -2.083702 1.2412424
-0.17783399 -0.07676491 0.14156288 -0.24406686 0.046117514 -0.013927877 -0.27323025 -0.14923647
0.03302872 -1.2504967 0.0009553708 0.76751125 1.9096241 0.36219642 2.0681515 1.432652

l2.bias f4 [8]
00000000: 7372 253f ca94 b5bd 81ff 773f 6565 5a3f
00000010: 0170 e83e ed00 463d c84f 09be d28d 113e
0.6462776 -0.0886627 0.96874243 0.85310966 0.45397952 0.048340727 -0.1340934 0.14214256

l3.weight f4 [24, 8]
00000000: a26c c1bf 9aff 4b3f 7a54 66be dd02 753e
00000010: 8571 3ebf 7b86 15c0 40a7 ab3c aee8 133f
00000020: 9c15 e5bf b7d0 6f3e fa3a cebf a06c 1e3f
00000030: 370a ab3e f68e ed3e 7621 16be a1ae 95bf
00000040: 1ca4 1a3e 9bac 84bf 8b00 32c0 c35d 0ac0
00000050: 977b 013f 066c ef3e c56d 8d3e 454f 943e
00000060: dc5f 51be cd47 22bf 28be 3bc0 69ff 8b3e
00000070: 813a 613f a63d 493d f383 893e c207 88be
00000080: 2fb3 303f cbe4 663e b1f5 33bf ed99 0ec0
00000090: f0b5 ad3d 778c fbbf 40f9 bf3b 84fd fc3e
000000a0: c6dd 0dbe 2cc3 37bf 2757 b6bf 1252 1c3f
000000b0: 72c5 ab3e e30d 183f a056 03bd ae9e eabf
000000c0: 3ce0 923e ac6d acbe 99ea 1d3f e0b4 7d3d
000000d0: 8d39 d8bf 771c 02bf 1a57 3cbe 100c 2bc0
000000e0: eb81 7abf c007 b13e a468 1ac0 7caa 4dbf
000000f0: 54f5 e63d 0b1e 023f 94d7 8bbd 8e82 3d3d
00000100: fb8f bfbe 034a dc3e b110 b03e 3414 10c0
00000110: 7ce5 96bf e2d4 51bf d0d6 8dbe 0541 fe3e
00000120: e7d2 17be 79cb c4bc eabd 283f d41b 6a3f
00000130: 9e4d 6abf e279 31c0 983c 063d 7822 29c0
00000140: d980 be3e 34ff 1ec0 0cb4 7cbf 0ba5 bebf
00000150: 3840 cb3e fe68 213f 0d51 a2be 0376 85bf
00000160: 45d2 613f ca1f d8bf e759 b13e 7052 95bf
00000170: 8049 0dc0 a189 f1be 1996 923e 0e25 31be
00000180: 51e4 9e3e d8f3 46c0 b20f b6bd ff90 b03e
00000190: 8c50 5d3e e5f9 fe3d 9539 25be c224 36c0
000001a0: cad1 3e3f 34be ecbf 8d8a 3bbe cd08 fcbf
000001b0: 513c 45bf 8426 283f e03b 0abc e10f 42c0
000001c0: 7112 17c0 a316 1a3f 4d51 a53d ce72 2e3f
000001d0: 0880 d3bf 8d69 293e 7074 5e3d aee7 00c0
000001e0: 4607 17bf f296 c33e b17c 77bf b261 11b8
000001f0: cd51 df3e b617 54bf 0a67 50be bb95 993e
00000200: e41b 0bc0 b5ca 333f cbe7 d1bf 6287 d0bd
00000210: 80dd 443f ea11 07c0 6376 28be c98c 103f
00000220: c6f4 5fbf 0b63 86be 804a b3be 287a bdbe
00000230: 7691 133e f6e9 a73e 5e7e 2f3e 4e10 83be
00000240: f357 e5bf d0ff b03e 32f7 f93d 379c 2c3f
00000250: fad3 533e 9c29 59bf 1b9c a5be f274 36bf
00000260: 15bb 99bd 0fdd 673d 830c 293f e69f bd3d
00000270: 9abc fabf a053 32c0 6047 49bc 8d05 e43d
00000280: 08ee 42bf 7ef3 86be 1f83 a13e f699 babe
00000290: 330c ffbf 2fc4 053f 823f 703e 3529 07bf
000002a0: 9a07 143f 05ca 54bf 5d33 bebe bf48 93bf
000002b0: e939 093b cd61 72be 4364 27be c9ae 483c
000002c0: a352 443e 40e4 62bf 6664 003e ce1e 273f
000002d0: 30dd 0a3f b64a a7bf 4ed4 063e bd15 81bf
000002e0: 5076 073d cc44 2cc0 f73c 813f b327 c5bf
000002f0: 482a 1ec0 bf83 593e c5dc 913e 2ae1 2ec0
-1.5111277 0.7968689 -0.22493163 0.23926874 -0.7439197 -2.336333 0.020953774 0.57776916
-1.789722 0.23419462 -1.6111748 0.618845 0.3340623 0.46398133 -0.14661202 -1.1693918
0.15101665 -1.0365175 -2.7812831 -2.1619728 0.5057921 0.46762103 0.2762281 0.28966728
-0.20446724 -0.6339081 -2.9334812 0.273433 0.87979895 0.04913106 0.26858482 -0.2656842
0.6902341 0.22548215 -0.7029677 -2.228145 0.084819674 -1.9652241 0.0058585703 0.49412167
-0.13854131 -0.71782184 -1.4245347 0.6106273 0.33549076 0.5939619 -0.032065034 -1.8329675
0.28686702 -0.33677423 0.6168609 0.061940074 -1.6892563 -0.50824684 -0.18392602 -2.6726112
-0.9785449 0.34576225 -2.4126368 -0.80338264 0.112772614 0.5082709 -0.06828228 0.046267085
-0.37414536 0.43025216 0.34387735 -2.251233 -1.1788783 -0.8196546 -0.2770295 0.4965898
-0.14826547 -0.024022805 0.65914786 0.9144871 -0.91524684 -2.7730641 0.03277263 -2.6427288
0.37207678 -2.4843264 -0.9871223 -1.4894117 0.39697433 0.6305083 -0.31702462 -1.0426639
0.8821147 -1.6884701 0.34638903 -1.1665783 -2.207611 -0.47175315 0.2863014 -0.17299291
0.31033567 -3.108633 -0.088897124 0.34485623 0.21612757 0.12450007 -0.16135247 -2.8459935
0.7453886 -1.8495545 -0.18314572 -1.9690186 -0.7704516 0.6568377 -0.008437127 -3.0322192
-2.3605006 0.6019079 0.080721475 0.6814393 -1.6523447 0.1654417 0.054310262 -2.0141406
-0.58995473 0.382011 -0.9667464 -3.466168e-05 0.43617097 -0.8284868 -0.20351806 0.29997048
-2.1735773 0.7023118 -1.6398863 -0.10182072 0.7690048 -2.1104684 -0.16451411 0.5646482
-0.8748287 -0.2624744 -0.35017776 -0.3700726 0.14410958 0.32795686 0.17138049 -0.25598377
-1.7917465 0.3457017 0.12205352 0.67425865 0.20686331 -0.84829116 -0.32345662 -0.71272194
-0.07506386 0.056607302 0.66034716 0.09259014 -1.9588807 -2.786354 -0.0122850835 0.11133871
-0.76144457 -0.26357645 0.3154535 -0.36445588 -1.9925598 0.5225248 0.23461726 -0.5279725
0.578241 -0.8312076 -0.37148562 -1.1506575 0.0020939058 -0.2367012 -0.1634684 0.012248703
0.19172148 -0.8862953 0.12538299 0.6528138 0.54243755 -1.3069675 0.13166925 -1.0084759
0.033071816 -2.691699 1.009673 -1.540274 -2.4713306 0.21241663 0.28488746 -2.732493

l3.bias f4 [24]
00000000: 2a01 083c 5bab 61be 8dac a83e 792f 0f3e
00000010: 7585 373e 812c 0fbd 5a6a 2e3e 5c6c b1bd
00000020: 58a0 86bd e924 66be a36c 7cbd 82b9 963e
00000030: 215c 54be 5423 82be 6567 0fbe d5e2 3abb
00000040: 07ec f6be 5619 7abf dd7b 91be d402 e93e
00000050: 1209 c23e dddb 5f3e fa02 873e 3748 853e
0.008301059 -0.22038023 0.32944146 0.13982953 0.17922004 -0.03495455 0.17032757 -0.08663246
-0.06573552 -0.22475018 -0.06162704 0.29438406 -0.2073827 -0.25417578 -0.14004286 -0.002851655
-0.4822695 -0.9769491 -0.28414813 0.4550997 0.37897545 0.21861215 0.26369458 0.26031658
