gunsnipBotData.pth (torch, 8526 bytes, 6 tensors)

l1.weight f4 [8, 98]
00000000: 9604 24bd dc9d 4ebe 75d3 57bf 070f b4be
00000010: 3e5a eb3d 3a03 8abe bb5f 213f 5c95 c4bd
00000020: 104e 183f e04f a83f f09e 2dbf 347f 823e
00000030: db4b 133f 3402 3abe 2908 263e e1ec 2dbe
00000040: a37c 02bf aa15 93bf b78b c53e b66c 91bc
00000050: 27f2 a9bd 178e 663f b94c c33e 6d52 f1be
00000060: f54c 90bd b39e b6bc 6f32 7abe e46f cb3d
00000070: 47f4 eebd b7d6 0d3e c447 503f 1d34 e3be
00000080: 254b 56be 20a0 1cbd 9576 ab3f 78be 2fbd
00000090: e4c6 da3e edbc 8a3f ca71 503d eabe 3b3f
000000a0: 228f 03bf 3ae2 39be 7d9e 03bf 838e 03bf
000000b0: 57f5 033f 7edc 1fbf f45f 8c3d 8f8f 4abd
000000c0: 7ce1 0fbf 5992 10bf 2320 803f 3a4d 643e
000000d0: 5b05 e43e ffc6 733e fd08 883e 2ead eabd
000000e0: 5bdb bdbd 1a64 0ebd eb97 a2bf e173 3c3e
000000f0: bb19 bcbe cffc 593f 742d 20bf 6ddd 7a3f
00000100: 16e7 303e fe94 633d 3f82 e3bd 7656 37be
00000110: 6dbb f93e 4cf3 4dbe 930d 853f 9751 d4bf
00000120: 6236 0abf 25c0 28bd cad2 afbf 526c ddbd
00000130: a847 dc3d 38c6 26be d09b dc3e ac23 803f
00000140: 791b 943d 9be0 c43e fa23 ce3e 186e 933d
00000150: ce9a 3a3e 82b3 03bf 25c3 05be 0fc8 a8bc
00000160: b579 37bd 083f 07be 5757 9c3f a5de 773f
00000170: 597a ce3c dfdd ae3d 5838 4a3f 9b09 6d3f
00000180: 858d cbbd c5fb 13be 9ee0 033e 4b15 a93e
00000190: 724f 993f 5e6b bb3d 8da3 033e b396 a63e
000001a0: 92e6 e1bc f7a6 133e 69cc 6c3e 8dea 163e
000001b0: 34d6 9abe 3906 85be c809 9fbd f4e0 45be
000001c0: 0576 5fbd e4af f6bd a1a2 9bbd 12ad 433f
000001d0: caf7 59bc f52b 903e a91e c6bd 5667 7cbe
000001e0: af17 07bf 905f 6cbd ddb5 233f 5d86 923d
000001f0: 03c3 9a3e a38a 813d d629 133f f512 11bb
00000200: f277 2dbf 72e4 40bd fe67 a63e 0d2d 8d3d
00000210: 2bb6 4ebf 194e 32bc 2944 183e ac1d 16be
00000220: cfc6 703f 733d efbe f413 0ebe 1bfa af3e
00000230: 8028 b7bd d13e 0abe d483 51bf 1121 9b3d
00000240: 0314 a43d 5af2 273e 1aa6 853e dd41 b33e
00000250: ad76 2bbf 7cf8 843e 9e1d 623e 5a0e d3be
00000260: 4047 f83c b052 343e 7571 233e 5e11 223e
00000270: 643f 05bf a573 1fbc 4096 24bd f5e9 28bf
00000280: 9d17 b23f a006 febd 1fe3 1cbf ebd6 2d3e
00000290: 41a5 483e 1683 07be 8c0c 593e 8149 57bd
000002a0: 8ac5 1dbf 90d8 7ebf 98e9 cdbe a397 813e
000002b0: ed2c 72bf 4061 94be 27fe 5bbe d6fb 91bf
000002c0: e9bc ab3d 5213 493f 2baa 08bb 2c4d c9bd
000002d0: 4563 743d e2fc d5bd a28e b03d e50b 313f
000002e0: a17a 603e fe61 4b3e e8cf 093d 014d 573e
000002f0: d6ab 12bf 6675 5cbe dfcb d1bd 5cbc c6bd
00000300: e323 983f 1049 18bf 2abd 633d 023b 0e3e
00000310: be0c 453e fe51 67be f599 51bf 9f66 1f3d
00000320: d23f 833e 85ab d53e e36c 043e aace dd3d
00000330: 0fec 9c3e 6410 2f3f 6983 11bc 934a a4bd
00000340: ebfa 823d 80a3 973d 8719 1a3e 0e36 bb3d
00000350: e116 01be 13a0 44bf 610f 55bf 3e61 7f3e
00000360: cc2b e9bc bc57 8cbe c477 df3e 2d22 c13d
00000370: 9147 bd3e ff90 6cbb d2d5 c53e 8c99 4b3e
00000380: 3aab 0b3f 5984 153e 4623 813f 1843 2fbf
00000390: 7521 a23e 02d2 c73e 5f06 14bf 2caa d93e
000003a0: 95a2 49bf 6583 813f b169 9e3e 202d 4bbe
000003b0: 6697 903e 4c38 76be 66ca a23e d4d0 5e3e
000003c0: 938a 713f b892 d73e 372b 6b3e c03b 9f3e
000003d0: 320f fc3e c677 043f a965 153f 6bed 273e
000003e0: 0c5d 613e 7ce4 aebe 8dca 88be 4122 5f3e
000003f0: 1529 7f3e 7915 36be cc5c c43f cdd3 9b3e
-0.040043436 -0.20177406 -0.8430703 -0.35167715 0.11491822 -0.26955587 0.630367 -0.095988005
0.59494114 1.3149376 -0.67820644 0.25487673 0.5753762 -0.18164903 0.1621405 -0.16984893
-0.5097143 -1.1490986 0.38583156 -0.017752033 -0.0829814 0.9006056 0.38144472 -0.47133198
-0.070459284 -0.02229247 -0.24433301 0.09933451 -0.11667686 0.13851438 0.81359506 -0.44375697
-0.20927103 -0.038238645 1.3395563 -0.042906255 0.42729867 1.0838906 0.050889768 0.73338187
-0.5139028 -0.18152705 -0.5141371 -0.5138933 0.51546234 -0.6244582 0.06854239 -0.049453314
-0.56203437 -0.5647331 1.0009807 0.22295085 0.44535336 0.2380638 0.26569358 -0.11458813
-0.09270354 -0.034763433 -1.2702612 0.1840358 -0.3673838 0.8515138 -0.62569356 0.9799412
0.17275652 0.055562012 -0.11108827 -0.17904076 0.48775807 -0.20112342 1.0394768 -1.6587399
-0.5398923 -0.04119887 -1.3736203 -0.10811676 0.10755855 -0.16286552 0.43087626 1.0010886
0.072318025 0.3845261 0.40261823 0.07198733 0.18223116 -0.5144578 -0.13062723 -0.020603208
-0.044793803 -0.13207638 1.2214154 0.96824104 0.025204824 0.08538412 0.78992224 0.9259278
-0.09939102 -0.14451511 0.12878653 0.33024058 1.197737 0.09151338 0.12855358 0.3253685
-0.027575765 0.14419161 0.23124851 0.14737912 -0.3024155 -0.2598131 -0.077655375 -0.19324094
-0.05455591 -0.12045267 -0.075993784 0.7643596 -0.013303706 0.28158537 -0.09673817 -0.24648795
-0.52770513 -0.057708323 0.63949376 0.07154534 0.30226907 0.06325271 0.5748571 -0.0022136543
-0.6776115 -0.047092862 0.32501215 0.068933584 -0.80746716 -0.010882878 0.14869751 -0.14659756
0.9405336 -0.4672657 -0.13874799 0.34370503 -0.08943272 -0.13500525 -0.8184178 0.07574666
0.080116294 0.16401044 0.26103288 0.35011187 -0.6697796 0.2597083 0.2208161 -0.41221887
0.030307412 0.17609668 0.15961249 0.15826938 -0.5204985 -0.009732162 -0.040182352 -0.6598199
1.3913456 -0.12403607 -0.6128406 0.16976516 0.1959429 -0.13233599 0.21196193 -0.052560333
-0.61629546 -0.995492 -0.4021728 0.25311002 -0.945998 -0.28980446 -0.2148367 -1.1404979
0.08385641 0.78545105 -0.002085338 -0.098291725 0.059664983 -0.10448624 0.08620955 0.69158775
0.21921779 0.198616 0.03364554 0.21025468 -0.5729345 -0.21529159 -0.102439635 -0.097038954
1.1885952 -0.59486485 0.055600323 0.13889697 0.19243142 -0.22589871 -0.81875545 0.038916226
0.2563463 0.41732422 0.12932162 0.10830434 0.30648848 0.68384385 -0.008881428 -0.080220364
0.06395515 0.07404232 0.150488 0.091411695 -0.12606384 -0.76806754 -0.8322659 0.24939439
-0.028463267 -0.27410686 0.4364606 0.09430347 0.36968663 -0.0036097167 0.38639694 0.19882792
0.54558146 0.14601268 1.008889 -0.6846175 0.3166615 0.3902741 -0.5782222 0.42512643
-0.78763705 1.0118223 0.3094001 -0.19841433 0.28240508 -0.24044913 0.31795043 0.21759349
0.9435207 0.42104125 0.22965704 0.31100273 0.49230343 0.5174526 0.58358246 0.16399162
0.22008151 -0.34158695 -0.26717034 0.2179041 0.24918015 -0.17781629 1.5340819 0.3043503

l1.bias f4 [8]
00000000: 0b92 033f 8dc6 723f 81c5 5a3f 73c9 963f
00000010: 1b2b 7f3f fcc2 253f ae9c 8c3f 1267 373f
0.5139472 0.94834214 0.8545762 1.1780227 0.9967515 0.6475065 1.0985315 0.7164165

l2.weight f4 [8, 8]
00000000: 2ff3 553f 726b 7a3f f961 0c3e 3fe6 933f
00000010: d4a3 9fbf e120 2340 64a6 143f 2b37 f73f
00000020: 1dce 62be 6011 ef3f ef19 263e 8673 af3f
00000030: f9ee 2340 60a2 fabf e8cd 95bc 2504 573f
00000040: 59da b4bf 9d4d 323f 340e 113f 7f78 693f
00000050: 6014 babf d3ef bb3f 8441 e73f a390 a63f
00000060: 0466 95bf ac1b 063d 0c95 8c3f e33d 06bf
00000070: 0593 f13e dbb1 40bf 1aa9 1f40 792c 0ebf
00000080: ed1b 07bd a3a1 8a3e a9bf a73f 5f9d 9dbf
00000090: 43d9 943f eac7 713f bba9 29bc 4841 0140
000000a0: b098 1e40 2ac4 eebd dc91 a73f 5323 79bf
000000b0: 4fda 98be 867e 3bbe 441e 803f 9ffe 423f
000000c0: b16a c5bf d66c adbf 1bf4 0740 f1a1 a23f
000000d0: d761 643e 5a9c 2ebe 89f5 4dbe d42c 6d3f
000000e0: 5aeb d73f 89a5 06c0 172c a03f 77f8 1240
000000f0: 2083 ac3f 0ebb 523f be03 783f 14c2 b5bf
0.83574194 0.978202 0.13709249 1.155464 -1.2471871 2.5488818 0.5806639 1.9313711
-0.22148938 1.8677177 0.1622083 1.370713 2.5614607 -1.9580803 -0.01828666 0.839907
-1.4129134 0.6964968 0.566623 0.9119949 -1.4537468 1.4682564 1.8066869 1.301289
-1.1671758 0.032741234 1.0982985 -0.5243818 0.4718248 -0.75271386 2.4946961 -0.5553661
-0.032985616 0.27076444 1.3105365 -1.2313651 1.1628803 0.9444567 -0.010355408 2.0196095
2.4780693 -0.11658509 1.3091388 -0.97319525 -0.29854056 -0.18309984 1.0009236 0.7616977
-1.5423185 -1.3548839 2.124274 1.270567 0.22302948 -0.17051831 -0.20113195 0.9264653
1.6868699 -2.1038535 1.2513455 2.296415 1.3477516 0.8231667 0.9688071 -1.4199853

l2.bias f4 [8]
00000000: d136 89bd 2076 c93f 5630 343f da35 7e3f
00000010: fe40 66bf f52f 31be c245 683e 21db 633d
-0.066999085 1.5739174 0.70386255 0.9930092 -0.8994292 -0.1730345 0.2268286 0.0556289

l3.weight f4 [24, 8]
00000000: 1f8c a2bf 6ede 893f 4753 a6bf 3961 af3e
00000010: d7b7 253f 6377 e3bf 28a2 eebf c7e5 94bf
00000020: 8244 34c0 8bc3 9c3f e073 1cc0 cf3c 143f
00000030: be03 20c0 f1e6 23c0 ea95 abbe 4ad0 023e
00000040: 4cf5 8ebd d5ae c5be 0026 973e 71c4 043f
00000050: 3453 e6bf 93a8 f53e 08a6 04c0 6509 6d3e
00000060: df49 4c3e 5de3 113f 3728 a43e 3ccd e7bf
00000070: 0416 613f 1ea4 d3bf 5311 87bf a177 18c0
00000080: b235 513f 3a37 01bf 7143 103f 999d ffbf
00000090: a5ed b93e aa9e b53e 6c22 d2bf ca5a 1dc0
000000a0: 2841 59bf 4e29 503f 3a14 e2bf 4b2a d8bf
000000b0: cef2 60bf 0f3e 0e3e 5d1f 2dc0 ec8c 2f3f
000000c0: 1e41 29bf 8be7 613d 5457 adbf fd33 98bf
000000d0: 6194 fbbe 350d 363e e433 cf3e 5833 a63e
000000e0: 3c32 ddbe e1e8 9fbf 8a27 28bf 2528 e23d
000000f0: 8086 ef3e 514f de3e abdb debf d930 273f
00000100: b396 f03e 1d1c 633f 89b7 533f 913d e3be
00000110: ba2d d9bf fa9c 3fc0 7576 c8bf 8389 b5bf
00000120: eb1a 8cbf 647e c6bd 6760 a5be 2f98 be3e
00000130: 5e12 b73e 3167 7ebe 0328 3f3f 4def 2ebf
00000140: 5a02 503f e600 edbf 899a 503f de13 a4be
00000150: 4964 bbbf 49f2 b7bf 5d8a a7bf 8752 1f3f
00000160: a9f7 bd3e 9386 1cbf 2446 003f 6e0f b4bf
00000170: 69e9 22bf 1128 e3bf 9979 653f d712 5fbd
00000180: 7e98 2ac0 8c90 553d 6d3c 88bf cacc e83e
00000190: 9e45 493d 8f09 efbf a5bf 113f d21a f53e
000001a0: a010 17c0 98f5 2b3e 4ea4 babf b381 883f
000001b0: d83f 73bc ee42 28bf f553 f0bf cfc5 0f3f
000001c0: 67be 57be 369e 93bf e6cb c83e b152 3e3f
000001d0: 2b4b 74bf f8c0 d9be 5013 203f 509d 4b3d
000001e0: e7e2 fabe 3cd8 1a3e 48e8 d6be 47c5 c73e
000001f0: 674d b43e f651 343f e868 96bf 74a7 8dbf
00000200: 1c7c 883e 0a9a 01c0 c338 943d 98a8 d23d
00000210: 0cd6 f2bd d48d b33e 9a57 6a3d 4827 abbd
00000220: de7b ca3e 72ee d5bf f570 033f 100b 5bbd
00000230: bb31 0a3f ffa0 393f b7e9 e7bf 0818 87bf
00000240: 21c7 87be 1c77 ad3e deaa 81be 6a57 b3bf
00000250: 1735 133f 59e6 06c0 59a5 083f 0d21 e7be
00000260: 6c57 ec3e 357e a63e 29e0 b73d 8bb7 0ec0
00000270: 0fb6 01c0 8c0d 05c0 9fbb 1ec0 c161 473f
00000280: aaa8 68bf 22c5 823e 4831 c03e fdf8 e53e
00000290: 84cb e8bf 1820 39c0 14af 2b3f a88d 523d
000002a0: 433b db3e ca13 edbe 6933 463f ec57 8e3e
000002b0: 9ecc 993d fcb8 47bf a253 12be b308 6ebf
000002c0: 98c0 103f e1c5 9fbe f37b b7bd cc35 2cc0
000002d0: 30cd b63d a6c6 9b3e ced2 8dbe 1f18 35bd
000002e0: 1e27 89bf 0009 3d3f f6f9 333f fc7b a93f
000002f0: c92d c8bf 4cfa 06bf 7159 16c0 35f7 0fc0
-1.2699012 1.0771005 -1.2994164 0.34253863 0.6473364 -1.7770809 -1.8643236 -1.1632622
-2.8166814 1.2247175 -2.4445724 0.57905287 -2.5002284 -2.5609705 -0.33512813 0.12774768
-0.069803804 -0.3860995 0.2952118 0.51862246 -1.7994142 0.47980174 -2.0726337 0.23148115
0.19950055 0.56987554 0.32061931 -1.8109508 0.8792422 -1.653446 -1.0552162 -2.3823016
0.8172256 -0.50474894 0.5635291 -1.996997 0.3631412 0.35472614 -1.6416755 -2.4586663
-0.84865046 0.81313026 -1.7662423 -1.6887907 -0.8787049 0.13890861 -2.7050393 0.68574405
-0.66114986 0.055152457 -1.3542275 -1.1890866 -0.49136642 0.17778476 0.40469277 0.32461047
-0.43202388 -1.2492944 -0.6568533 0.11042813 0.46782303 0.4341989 -1.7410787 0.6530891
0.46989974 0.8871477 0.8270193 -0.4438291 -1.696708 -2.993956 -1.566115 -1.418259
-1.0945715 -0.09692076 -0.32300112 0.37225482 0.357562 -0.24844052 0.7467043 -0.68333894
0.8125359 -1.8515899 0.814858 -0.32046407 -1.463998 -1.4370815 -1.30891 0.622353
0.37103012 -0.61142844 0.50107026 -1.4067209 -0.63637406 -1.7746602 0.8963867 -0.054461326
-2.6655574 0.052139804 -1.064344 0.45468742 0.049138658 -1.8674792 0.5693305 0.47872025
-2.3603897 0.16792905 -1.4581392 1.0664581 -0.0148467645 -0.65727127 -1.8775622 0.56161207
-0.21068726 -1.1532657 0.39218062 0.7434493 -0.954272 -0.42530036 0.6252947 0.04971057
-0.49001238 0.1512155 -0.41974092 0.39017698 0.35215303 0.7043756 -1.1750765 -1.1066728
0.26657188 -2.0250268 0.07237389 0.10286063 -0.118572325 0.35069144 0.05721245 -0.08357102
0.39547628 -1.6713393 0.51344234 -0.053477347 0.5398213 0.72511286 -1.8118199 -1.0554209
-0.2651911 0.33879936 -0.25325674 -1.4011052 0.57502884 -2.1078093 0.533773 -0.45142403
0.46160448 0.32518163 0.08978302 -2.2299526 -2.026737 -2.0789518 -2.4802015 0.77883536
-0.9088236 0.25541025 0.375376 0.44916525 -1.8187108 -2.8925838 0.67064023 0.051404625
0.4281865 -0.4630416 0.77422196 0.27801454 0.07509731 -0.7801664 -0.14289716 -0.92982024
0.56543875 -0.31205657 -0.08959188 -2.6907835 0.08925855 0.30424994 -0.27699894 -0.044212457
-1.0715063 0.7384186 0.70303285 1.3240962 -1.5638973 -0.5272567 -2.349209 -2.2494633

l3.bias f4 [24]
00000000: eded bb3e 456f 673f 8cd0 04bc e612 963d
00000010: 894d b13e f196 ddbd d570 90be 2489 0ebf
00000020: c237 8ebc 5f8c 12bf 25c3 d9bd f57d 0fbf
00000030: bf88 33bf 45bf c23e 707d cabe a271 24bf
00000040: 54e6 80bf 9af6 203e 4a46 11bf dd96 bc3e
00000050: b70d 203e c573 86bd 1da2 f63e e6a9 463f
0.3670496 0.9040416 -0.008106362 0.07327823 0.34629467 -0.108198054 -0.28211084 -0.5567801
-0.017360572 -0.5724544 -0.10632924 -0.5605157 -0.7013053 0.38036552 -0.39548826 -0.6423589
-1.007029 0.15719071 -0.5674788 0.3683385 0.15630232 -0.0656505 0.48170558 0.77602994
