gunsnipBotData.pth (torch, 8590 bytes, 6 tensors)

l1.weight f4 [8, 100]
-0.16828644 0.80174536 -1.2126894 -0.07992092 0.15515977 -0.50843036 0.35255158 -0.057159662
-0.28591567 -1.3291049 0.63198835 0.4811729 0.35015312 -0.2719303 -0.26442787 0.8347334
0.020085856 -0.47126502 1.6633109 0.8149991 -0.14310129 -0.3938825 0.5728552 -0.69790316
0.76562965 0.7845834 0.4476015 -0.57590747 0.110723816 0.7245905 -0.17759974 0.8579655
-0.2024685 -0.4853274 0.31317505 0.7296866 0.034108866 0.6601827 0.15385957 -0.06170219
1.1444033 0.89666533 0.548209 0.89060134 0.9146107 -1.1654241 -0.01635342 0.20411639
0.25561956 -0.2348458 -0.20780925 -0.47545663 -0.47950882 0.15933019 -0.082932636 0.5604314
0.2479511 -0.41578338 -0.11486243 0.5200786 1.5095644 -0.025829475 -0.24957344 0.88739294
-1.1328918 0.3336909 -0.17826761 -0.08532713 -0.1927144 -0.37275136 0.0388697 -0.3684654
-0.6337192 0.15328754 0.5879608 -0.46226147 -1.2356619 0.8659914 0.9928118 -0.73161554
0.31607327 1.1062495 0.5282413 -0.01829223 -0.019907923 0.45691 0.16213506 1.2999173
0.55960405 0.38695034 0.2138276 -0.24129073 0.83715695 0.60525364 -0.012240943 0.55657977
-0.67644936 0.7314379 0.025841197 0.5125115 -0.023216553 0.7102301 -1.0853196 -0.22487563
0.06344046 -0.33410883 0.20192508 -0.06892012 -0.1594576 1.537348 0.5792784 0.65295523
0.08736639 -0.19067714 0.13209353 -0.76212436 0.54486096 0.8999639 0.8609614 1.1263195
-0.0031431618 -0.14256833 -0.42450523 0.59431756 0.57400244 -0.36491692 -0.3557952 -0.32208797
0.23603489 -0.29681304 0.1943249 0.16272292 -0.6536321 -0.13580234 0.33342296 1.3881419
0.2776316 1.127356 0.37158343 -0.039673433 -0.22065619 0.72444767 0.43752688 0.7881448
0.7920474 1.1929486 0.5291634 -0.1062734 -0.30715805 0.020741398 -0.016684419 0.9885326
0.68229485 0.4491889 0.26099715 0.5173391 0.6882717 -0.0225078 -0.036127765 0.6070578
-0.9731504 0.15415576 -0.6359247 0.24289565 0.15973549 0.4671083 0.402747 -0.007033119
-0.15484446 -0.33268544 0.27998963 -0.21756396 1.165046 0.9906866 0.64716756 -0.030159885
0.9073533 -0.4363284 -0.5361121 1.375188 0.60236174 -0.619636 -0.118603304 0.15327215
0.5868311 -0.052813534 -0.020676259 0.8723972 0.41556993 0.26689255 0.29357803 -0.015070696
-0.6168255 -0.39739376 0.25753573 0.0026037178 -0.6907061 0.22085156 -0.16083468 0.26279178
0.34392098 0.5566076 1.3202516 0.4060918 0.11528521 0.87295717 -0.026587507 0.44848344
0.13934712 -1.4251899 -0.30456123 -0.38762045 0.18365897 0.52425987 -0.021179382 0.69703895
0.7039713 0.42521638 -0.2558976 -0.903647 0.4043366 0.04760573 0.8256917 -0.5674212
-0.38164958 0.57379156 0.37426475 0.8169032 0.24677221 0.6928822 -0.093053624 -0.104386084
-0.70618886 0.43171084 0.06760585 -0.09490341 -0.0007862414 -0.75133735 -0.63888425 0.84607804
1.5186405 -0.69400084 0.46179724 -0.60384434 -0.6723931 -0.2584082 -0.04800453 0.57587796
0.5242013 0.28556606 0.3522842 0.48355097 0.32267228 0.07428515 -0.039939508 0.76017267
00000000: 4853 2cbe 2f3f 4d3f 6839 9bbf 94ad a3bd
00000010: 34e2 1e3e 7e28 02bf a481 b43e 4020 6abd
00000020: 8a63 92be 1c20 aabf fdc9 213f 4b5c f63e
00000030: 4547 b33e 733a 8bbe 1763 87be 17b1 553f
00000040: 188b a43c a649 f1be 5fe7 d43f c8a3 503f
00000050: 2589 12be f8aa c9be a3a6 123f c8a9 32bf
00000060: 4e00 443f 75da 483f 062c e53e ac6e 13bf
00000070: 2bc3 e23d c37e 393f b5dc 35be a1a3 5b3f
00000080: e753 4fbe d57c f8be 7b58 a03e becc 3a3f
00000090: bdb5 0b3d bc01 293f 5d8d 1d3e 70bb 7cbd
000000a0: cf7b 923f dc8b 653f 6d57 0c3f 73fe 633f
000000b0: ed23 6a3f 9e2c 95bf 9cf7 85bc e303 513e
000000c0: 91e0 823e 6b7b 70be f3cb 54be 0d6f f3be
000000d0: 2e82 f5be 7427 233e 96d8 a9bd 6f78 0f3f
000000e0: e5e6 7d3e 8fe1 d4be fe3c ebbd df23 053f
000000f0: 6839 c13f 5698 d3bc 2e90 7fbe 2f2c 633f
00000100: 9902 91bf 89d9 aa3e c98b 36be febf aebd
00000110: ec56 45be 44d9 bebe d635 1f3d 7fa7 bcbe
00000120: 6c3b 22bf 69f7 1c3e 9984 163f 89ad ecbe
00000130: 2b2a 9ebf 9db1 5d3f ea28 7e3f 284b 3bbf
00000140: 5bd4 a13e 9599 8d3f d23a 073f 96d9 95bc
00000150: f115 a3bc 1cf0 e93e bc06 263e b163 a63f
00000160: 3642 0f3f 5b1e c63e 9ff5 5a3e eb14 77be
00000170: eb4f 563f e7f1 1a3f 3c8e 48bc 037c 0e3f
00000180: c92b 2dbf 843f 3b3f ebb0 d33c f433 033f
00000190: a430 bebc a4d1 353f c1eb 8abf cc45 66be
000001a0: 12ed 813d 5010 abbe 73c5 4e3e fe25 8dbd
000001b0: da48 23be d2c7 c43f 974b 143f 1328 273f
000001c0: 26ed b23d de40 43be 8743 073e 951a 43bf
000001d0: 027c 0b3f 0964 663f f767 5c3f 3d2b 903f
000001e0: 81fd 4dbb 6ffd 11be c058 d9be 3225 183f
000001f0: d3f1 123f 64d6 babe ca2a b6be b7e8 a4be
00000200: 21b3 713e e1f7 97be 1bfd 463e d6a0 263e
00000210: 6f54 27bf c50f 0bbe 6ab6 aa3e a2ae b13f
00000220: bb25 8e3e 344d 903f 2f40 be3e 9c80 22bd
00000230: b2f3 61be 6775 393f 8603 e03e dcc3 493f
00000240: 9ec3 4a3f 8ab2 983f 4177 073f dea5 d9bd
00000250: d243 9dbe dde9 a93c c3ad 88bc 7910 7d3f
00000260: e0aa 2e3f 16fc e53e 6ba1 853e 5670 043f
00000270: 9332 303f 4762 b8bc b5fa 13bd 2468 1b3f
00000280: 6220 79bf 02db 1d3e f6cb 22bf a3b9 783e
00000290: b391 233e d228 ef3e db34 ce3e 1476 e6bb
000002a0: 8c8f 1ebe bf55 aabe cd5a 8f3e 16c9 5ebe
000002b0: 3a20 953f a39d 7d3f c6ac 253f dd11 f7bc
000002c0: 4e48 683f 7066 dfbe a53e 09bf 2906 b03f
000002d0: 6134 1a3f 77a0 1ebf 4ae6 f2bd 60f3 1c3e
000002e0: 903a 163f 0153 58bd 4261 a9bc 6c55 5f3f
000002f0: 95c5 d43e 24a6 883e dc4f 963e 15eb 76bc
00000300: 47e8 1dbf 3277 cbbe b9db 833e 23a3 2a3b
00000310: 1dd2 30bf e926 623e d9b1 24be a58c 863e
00000320: 6916 b03e d67d 0e3f 01fe a83f 44eb cf3e
00000330: a71a ec3d 1f7a 5f3f 0bce d9bc 9f9f e53e
00000340: 03b1 0e3e 9f6c b6bf 73ef 9bbe 3076 c6be
00000350: 1911 3c3e e535 063f 6280 adbc 2571 323f
00000360: 7737 343f f6b5 d93e 0305 83be 6955 67bf
00000370: 3505 cf3e 3afe 423d 8860 533f 8442 11bf
00000380: 9367 c3be 01e4 123f a19f bf3e 9120 513f
00000390: dbb1 7c3e ba60 313f e692 bebd 5fc8 d5bd
000003a0: cbc8 34bf 3409 dd3e f074 8a3d b85c c2bd
000003b0: c41b 4eba a557 40bf eb8d 23bf 9298 583f
000003c0: d062 c23f 0aaa 31bf b070 ec3e 8b95 1abf
000003d0: f421 2cbf 144e 84be 66a0 44bd bd6c 133f
000003e0: 0e32 063f b735 923e 985e b43e fe93 f73e
000003f0: 4d35 a53e d022 983d 9c97 23bd ad9a 423f

l1.bias f4 [8]
1.0818615 0.65604955 1.1939461 0.70757127 0.93643177 1.0811758 1.0683488 0.74240744
00000000: 707a 8a3f ddf2 273f 3ad3 983f 6423 353f
00000010: feb9 6f3f f863 8a3f a7bf 883f 6a0e 3e3f

l2.weight f4 [8, 8]
1.3993763 -0.20090486 0.039518274 -1.8235782 0.9041872 1.5050807 0.49902093 -0.18028376
2.7099419 -0.0006976091 1.9065473 0.9113401 -0.5816175 -0.22281328 -1.3113787 0.60121554
1.7521408 0.21042474 0.43535507 0.84349966 0.45973516 -1.3937628 0.5375537 1.0115856
-0.1904464 0.748289 -0.7019395 2.3295105 1.5235846 1.5916164 -0.5743969 0.56314903
0.05858125 -0.7610248 1.5451653 0.18623653 -1.6174552 2.0191514 0.4548819 2.1270947
-0.47741652 -0.51629144 2.1417441 0.6122712 -0.48765823 0.6892624 1.3761961 -1.1426955
0.79185146 0.6117367 1.297052 -1.7753612 1.3910576 0.45154655 2.1802404 -1.9179022
0.0025351727 2.783627 -1.0407566 1.7377709 0.6055765 -0.9275874 1.8687036 1.4070047
00000000: c31e b33f 01ba 4dbe eadd 213d 036b e9bf
00000010: d078 673f 7ca6 c03f ac7f ff3e 4e9c 38be
00000020: b06f 2d40 c1df 36ba be09 f43f 964d 693f
00000030: e2e4 14bf 2a29 64be 42db a7bf 43e9 193f
00000040: 2646 e03f 9579 573e dce6 de3e 98ef 573f
00000050: 6862 eb3e d266 b2bf 1f9d 093f a37b 813f
00000060: 6204 43be de8f 3f3f 4fb2 33bf b316 1540
00000070: d204 c33f 16ba cb3f ad0b 13bf 892a 103f
00000080: e5f2 6f3d 85d2 42bf fac7 c53f cab4 3e3e
00000090: c608 cfbf c739 0140 48e6 e83e 5222 0840
000000a0: f06f f4be ad2b 04bf 5612 0940 cebd 1c3f
000000b0: 57ae f9be 8073 303f 3227 b03f d943 92bf
000000c0: c7b6 4a3f c79a 1c3f cd05 a63f 093f e3bf
000000d0: 2d0e b23f 1c31 e73e 0f89 0b40 d27d f5bf
000000e0: 2425 263b f226 3240 8337 85bf 476f de3f
000000f0: 1007 1b3f 5e76 6dbf ae31 ef3f bb18 b43f

l2.bias f4 [8]
1.085851 0.7016721 -0.4920658 0.74382806 0.6032534 0.27666214 0.61109203 0.3400038
00000000: 2afd 8a3f c8a0 333f 0cf0 fbbe 846b 3e3f
00000010: d16e 1a3f a9a6 8d3e 8770 1c3f fa14 ae3e

l3.weight f4 [24, 8]
-0.33744 0.45989662 0.72095996 -1.354299 -0.13738286 -1.4849674 -0.35203493 0.013236375
1.1219479 -1.8755585 -2.1339223 0.9001689 -1.4696507 -1.407695 0.46256572 -2.0290542
-0.58920723 -0.48287943 -0.32657057 -0.37534946 -0.7546749 0.34735644 0.2312949 0.27339798
-0.11493166 -1.2492431 -2.7355795 -1.2456201 0.5532572 1.0367004 0.5624498 -2.2489831
0.72781485 -1.989089 -2.7029362 -0.021487871 0.50440425 -0.2570865 0.4268443 -0.87568843
-1.3843297 0.6851928 0.2934767 -0.38384858 0.23257977 0.24386406 -2.361899 -1.0568231
-0.2741824 -1.6026608 -1.6896187 0.43209642 -0.026716767 -0.7081081 -0.022748644 0.41857594
-0.9740293 -2.177944 0.09969731 -1.7257524 -1.3197279 0.6864143 0.7646239 0.5399665
0.3089396 -2.2098622 -1.9572904 -0.60478485 -1.020925 0.905481 0.95325595 -0.35077745
0.6510397 0.44856197 -1.2735713 0.37683198 -0.36957765 -0.869002 0.12358225 -2.2848961
-2.3365753 0.50607145 0.4762811 -0.97154164 -0.6412246 0.28391927 -0.08785915 -0.11159781
0.5500137 -2.3845665 -0.8538966 0.050464045 -2.2495377 -0.8162167 0.71032983 0.10997662
-1.4849434 -0.55501866 -1.520644 1.145564 -1.7028202 -1.8904972 -0.96924126 0.44353062
0.16246653 0.559554 0.1715589 -1.8188803 0.6327654 -0.4656783 -0.7070312 -2.0673463
-0.8668981 -2.2112768 0.74134177 -0.34583423 -1.6417761 -1.47855 0.17357723 0.9330723
0.6093419 0.034182265 -0.7495851 -1.7230406 0.22124416 -0.0037262398 0.50716865 -1.3783656
0.75191045 0.43436354 -0.014332 -0.90959394 0.5350981 -2.1544957 -2.2000046 -0.5076284
-2.3641684 -1.0398042 -0.4806975 -0.23383199 0.5126443 -1.3815827 -2.1663835 0.9418385
-1.9119508 0.32510704 -1.7459317 0.58945996 0.49637035 0.55296016 -1.5918148 -2.3062928
-1.3352041 0.09930005 0.5807083 -0.06540867 -1.493467 -1.8208867 -0.9687923 0.57762504
0.17081015 0.5170974 -0.48231283 -0.39464983 -2.3846214 -1.9458239 0.51261115 0.17228019
0.19622551 -0.13672698 -1.865361 -0.094265446 0.6635939 0.15776867 -0.60638845 -0.59048945
-0.47129992 -0.16324754 -0.3790515 0.3476299 0.36977288 -0.57726884 -1.7516047 0.06677616
0.10551122 0.19005454 -0.1535894 -2.865616 -1.2364831 -0.24212645 0.54339105 0.25644344
00000000: f0c4 acbe 9277 eb3e d590 383f ab59 adbf
00000010: 18ae 0cbe 6913 bebf ec3d b4be 61dd 583c
00000020: fd9b 8f3f 4d12 f0bf 2f92 08c0 7871 663f
00000030: 841d bcbf 5a2f b4bf 6ad5 ec3e 06dc 01c0
00000040: 49d6 16bf f93b f7be 4234 a7be ce2d c0be
00000050: 6032 41bf b4d8 b13e 92d8 6c3e d2fa 8b3e
00000060: 4a61 ebbd 33e7 9fbf bc13 2fc0 7b70 9fbf
00000070: 44a2 0d3f 99b2 843f b6fc 0f3f 57ef 0fc0
00000080: 1352 3a3f 789a febf e8fc 2cc0 5507 b0bc
00000090: a320 013f d7a0 83be 568b da3e 1e2d 60bf
000000a0: b731 b1bf cc68 2f3f 9442 963e cd87 c4be
000000b0: 6429 6e3e 80b7 793e 5a29 17c0 fb45 87bf
000000c0: a361 8cbe fd23 cdbf 6d45 d8bf be3b dd3e
000000d0: 1fdd dabc 9346 35bf 5d5b babc 964f d63e
000000e0: fc59 79bf 6f63 0bc0 1a2e cc3d 74e5 dcbf
000000f0: d8ec a8bf d9b8 2f3f 64be 433f 3f3b 0a3f
00000100: 552d 9e3e 626e 0dc0 7e88 fabf 2ed3 1abf
00000110: acad 82bf 9acd 673f 9508 743f 1a99 b3be
00000120: 8aaa 263f eaa9 e53e 6204 a3bf 1ff0 c03e
00000130: 4839 bdbe ea76 5ebf b118 fd3d bd3b 12c0
00000140: 738a 15c0 e68d 013f 1edb f33e f4b6 78bf
00000150: 4c27 24bf de5d 913e 7fef b3bd 658d e4bd
00000160: b3cd 0c3f bd9c 18c0 f898 5abf 63b3 4e3d
00000170: 6df8 0fc0 94f3 50bf 2dd8 353f 6c3b e13d
00000180: a012 bebf b415 0ebf 76a4 c2bf d7a1 923f
00000190: 03f6 d9bf d0fb f1bf 3220 78bf 7216 e33e
000001a0: a05d 263e ee3e 0f3f 23ad 2f3e 12d1 e8bf
000001b0: eafc 213f 636d eebe ffff 34bf 674f 04c0
000001c0: 09ed 5dbf 8f85 0dc0 93c8 3d3f 2f11 b1be
000001d0: b825 d2bf 2041 bdbf 3bbe 313e d4dd 6e3f
000001e0: d5fd 1b3f b402 0c3d cfe4 3fbf 988c dcbf
000001f0: d48d 623e ee33 74bb ced5 013f 496e b0bf
00000200: 347d 403f e664 de3e c4d0 6abc 26db 68bf
00000210: 30fc 083f 42e3 09c0 e0cc 0cc0 eff3 01bf
00000220: 894e 17c0 4e18 85bf fc1d f6be a771 6fbe
00000230: a83c 033f b4d7 b0bf 07a6 0ac0 541c 713f
00000240: ceba f4bf 6e74 a63e b17a dfbf d9e6 163f
00000250: 4124 fe3e cc8e 0d3f 96c0 cbbf 4d9a 13c0
00000260: f8e7 aabf d35d cb3d 4da9 143f fbf4 85bd
00000270: ed29 bfbf d112 e9bf c602 78bf 3cdf 133f
00000280: dbe8 2e3e 7f60 043f b5f1 f6be 8b0f cabe
00000290: a39d 18c0 c210 f9bf 7c3a 033f 386a 303e
000002a0: 57ef 483e 2802 0cbe 26c4 eebf 3e0e c1bd
000002b0: 4ae1 293f 1c8e 213e 463c 1bbf 512a 17bf
000002c0: 394e f1be 5d2a 27be 0a13 c2be 8cfc b13e
000002d0: df52 bd3e e4c7 13bf 9534 e0bf f0c1 883d
000002e0: 4416 d83d a89d 423e 8a46 1dbe 4166 37c0
000002f0: 1445 9ebf ffef 77be ad1b 0b3f 8e4c 833e

l3.bias f4 [24]
-0.15629625 0.16665897 -0.5068826 -0.01077007 0.107653506 0.12550253 0.16764572 -0.34458894
-0.05326058 0.09005152 -0.29395524 -0.17194651 0.08725101 0.059751716 0.20644021 -0.06234599
-0.2615501 0.117649525 0.12814362 0.06740759 -0.039163705 0.15305926 -0.062018562 -0.5088737
00000000: 200c 20be a6a8 2a3e 0fc3 01bf f374 30bc
00000010: 7179 dc3d bc83 003e 52ab 2b3e f66d b0be
00000020: c427 5abd ee6c b83d 4d81 96be bf12 30be
00000030: a8b0 b23d 37be 743d 1065 533e 825e 7fbd
00000040: e5e9 85be 3cf2 f03d 1538 033e fe0c 8a3d
00000050: 1f6a 20bd 91bb 1c3e 2d07 7ebd 8c45 02bf
